…
Namespace(al_method='msg_mask', bald_ft_epochs=5, batch_data_num=100, batchsize=48, data_mix=False, data_mixing_rate=0.5, dataset='qm9', device=1, epochs=800, ft_epochs=5, ft_method='by_valid', init_data_num=5000, k_center_ft_epochs=10, lr=0.0005, mc_sampling_num=80, model_num=4, multi_gpu=False, prop_name='homo', qbc_ft_epochs=5, re_init=False, save_model=False, shuffle=True, test_freq=5, test_use_all=False, use_default=False, use_tb=True, workers=0)
1119_22_10  model SchNetModel(
  (activation): ShiftSoftplus(
    beta=1, threshold=20
    (softplus): Softplus(beta=1, threshold=20)
  )
  (embedding_layer): AtomEmbedding(
    (embedding): Embedding(100, 48, padding_idx=0)
  )
  (rbf_layer): RBFLayer()
  (conv_layers): ModuleList(
    (0): Interaction(
      (activation): Softplus(beta=0.5, threshold=14)
      (node_layer1): Linear(in_features=48, out_features=48, bias=False)
      (cfconv): CFConv(
        (linear_layer1): Linear(in_features=10, out_features=48, bias=True)
        (linear_layer2): Linear(in_features=48, out_features=48, bias=True)
        (activation): Softplus(beta=0.5, threshold=14)
      )
      (node_layer2): Linear(in_features=48, out_features=48, bias=True)
      (node_layer3): Linear(in_features=48, out_features=48, bias=True)
    )
    (1): Interaction(
      (activation): Softplus(beta=0.5, threshold=14)
      (node_layer1): Linear(in_features=48, out_features=48, bias=False)
      (cfconv): CFConv(
        (linear_layer1): Linear(in_features=10, out_features=48, bias=True)
        (linear_layer2): Linear(in_features=48, out_features=48, bias=True)
        (activation): Softplus(beta=0.5, threshold=14)
      )
      (node_layer2): Linear(in_features=48, out_features=48, bias=True)
      (node_layer3): Linear(in_features=48, out_features=48, bias=True)
    )
    (2): Interaction(
      (activation): Softplus(beta=0.5, threshold=14)
      (node_layer1): Linear(in_features=48, out_features=48, bias=False)
      (cfconv): CFConv(
        (linear_layer1): Linear(in_features=10, out_features=48, bias=True)
        (linear_layer2): Linear(in_features=48, out_features=48, bias=True)
        (activation): Softplus(beta=0.5, threshold=14)
      )
      (node_layer2): Linear(in_features=48, out_features=48, bias=True)
      (node_layer3): Linear(in_features=48, out_features=48, bias=True)
    )
    (3): Interaction(
      (activation): Softplus(beta=0.5, threshold=14)
      (node_layer1): Linear(in_features=48, out_features=48, bias=False)
      (cfconv): CFConv(
        (linear_layer1): Linear(in_features=10, out_features=48, bias=True)
        (linear_layer2): Linear(in_features=48, out_features=48, bias=True)
        (activation): Softplus(beta=0.5, threshold=14)
      )
      (node_layer2): Linear(in_features=48, out_features=48, bias=True)
      (node_layer3): Linear(in_features=48, out_features=48, bias=True)
    )
  )
  (atom_dense_layer1): Linear(in_features=48, out_features=64, bias=True)
  (atom_dense_layer2): Linear(in_features=64, out_features=1, bias=True)
)  optimizer Adam (
Parameter Group 0
    amsgrad: False
    betas: (0.9, 0.999)
    eps: 1e-08
    lr: 0.0005
    weight_decay: 0
)
inference 23.293590545654297
Iteration 1 Mean MSE 0.006674845702946186
Iteration 2 Mean MSE 0.005174547899514437
Iteration 3 Mean MSE 0.004640858620405197
Iteration 4 Mean MSE 0.004152031149715185
Iteration 5 Mean MSE 0.004137295298278332
Iteration 6 Mean MSE 0.00413301307708025
Iteration 7 Mean MSE 0.004131719004362822
Iteration 8 Mean MSE 0.004131695721298456
Iteration 9 Mean MSE 0.004131695721298456
Iteration 10 Mean MSE 0.004131695721298456
start
SchNetModel(
  (activation): ShiftSoftplus(
    beta=1, threshold=20
    (softplus): Softplus(beta=1, threshold=20)
  )
  (embedding_layer): AtomEmbedding(
    (embedding): Embedding(100, 48, padding_idx=0)
  )
  (rbf_layer): RBFLayer()
  (conv_layers): ModuleList(
    (0): Interaction(
      (activation): Softplus(beta=0.5, threshold=14)
      (node_layer1): Linear(in_features=48, out_features=48, bias=False)
      (cfconv): CFConv(
        (linear_layer1): Linear(in_features=10, out_features=48, bias=True)
        (linear_layer2): Linear(in_features=48, out_features=48, bias=True)
        (activation): Softplus(beta=0.5, threshold=14)
      )
      (node_layer2): Linear(in_features=48, out_features=48, bias=True)
      (node_layer3): Linear(in_features=48, out_features=48, bias=True)
    )
    (1): Interaction(
      (activation): Softplus(beta=0.5, threshold=14)
      (node_layer1): Linear(in_features=48, out_features=48, bias=False)
      (cfconv): CFConv(
        (linear_layer1): Linear(in_features=10, out_features=48, bias=True)
        (linear_layer2): Linear(in_features=48, out_features=48, bias=True)
        (activation): Softplus(beta=0.5, threshold=14)
      )
      (node_layer2): Linear(in_features=48, out_features=48, bias=True)
      (node_layer3): Linear(in_features=48, out_features=48, bias=True)
    )
    (2): Interaction(
      (activation): Softplus(beta=0.5, threshold=14)
      (node_layer1): Linear(in_features=48, out_features=48, bias=False)
      (cfconv): CFConv(
        (linear_layer1): Linear(in_features=10, out_features=48, bias=True)
        (linear_layer2): Linear(in_features=48, out_features=48, bias=True)
        (activation): Softplus(beta=0.5, threshold=14)
      )
      (node_layer2): Linear(in_features=48, out_features=48, bias=True)
      (node_layer3): Linear(in_features=48, out_features=48, bias=True)
    )
    (3): Interaction(
      (activation): Softplus(beta=0.5, threshold=14)
      (node_layer1): Linear(in_features=48, out_features=48, bias=False)
      (cfconv): CFConv(
        (linear_layer1): Linear(in_features=10, out_features=48, bias=True)
        (linear_layer2): Linear(in_features=48, out_features=48, bias=True)
        (activation): Softplus(beta=0.5, threshold=14)
      )
      (node_layer2): Linear(in_features=48, out_features=48, bias=True)
      (node_layer3): Linear(in_features=48, out_features=48, bias=True)
    )
  )
  (atom_dense_layer1): Linear(in_features=48, out_features=64, bias=True)
  (atom_dense_layer2): Linear(in_features=64, out_features=1, bias=True)
)
-0.23918546736240387 0.021602824330329895
training loss 0.005235239863395691 mae 0.06530282646417618
training loss 0.0006593643104447525 mae 0.01883125266827204
training loss 0.0005493723775264759 mae 0.017069554251461925
training loss 0.0005120919610293493 mae 0.016541310573699855
training loss 0.00048042771340445103 mae 0.01600205717117187
Epoch  0, training: loss: 0.0004762, mae: 0.0159318 test: loss0.0004226, mae:0.0148380
…
